examples/pytorch_based/mnist_gcn_simple_two_layer.pt (torch_old, 189723 bytes, 6 tensors)

gcn1.weight f4 [3, 1, 6]
00000000: 3069 09be 3120 6c3e 2eb2 e5be a1bc 233e
00000010: 5a91 02bf 2de5 d63f 902f 8ebf 1b41 bebe
00000020: 9a9f 5740 4066 32bf e6ba a73e d2b5 24bf
00000030: f9a1 923f 890e 163f ad74 b6bf 4000 a73f
00000040: 1ec9 7fbe dfbe 08bf
-0.13419032 0.23059155 -0.44862503 0.15989925 -0.5100304 1.6788689 -1.1108265 -0.37159047
3.3691163 -0.6968727 0.3275978 -0.64339936 1.145568 0.5861593 -1.4254357 1.3046951
-0.24979064 -0.53416246

gcn1.bias f4 [1, 1, 6]
00000000: 4692 c6be c389 f93e 3a73 0f3f 5a07 c6be
00000010: fefd 90be 1035 833e
-0.38783473 0.48737916 0.56035197 -0.38677484 -0.2831878 0.2562642

gcn2.weight f4 [2, 6, 6]
00000000: 66b6 353f 86eb 48bf 3693 043f 556a ab3e
00000010: 5054 36bf 4183 18bf e615 0fbd bb7e ab3e
00000020: 8077 803e c63d 013e d9d1 77bd a3b8 a63e
00000030: 4ac6 1c3f 0d43 7fbf 3db2 63bf 3ed4 aabf
00000040: 6aa9 7e3e 5f48 84bf d859 2a3f dae8 d1bf
00000050: 463d 0f3f 6dbf 833e c4d4 93bf 32ff 97bf
00000060: c4f1 623e 1842 363e 9675 153e a4ca 6b3e
00000070: 0466 d93d 5a2b 1d3e a8c5 453e 51ad bf3e
00000080: b397 a0bf 600b 833e d943 6cbe 6336 413f
00000090: 577f 93be fd82 8f3f c45a 7abe fc68 bdbe
000000a0: 550c 743e c85d e83d b80c aa3e 7df9 ebbe
000000b0: d89f 2ebe 340c 5abe d6a4 5fbd fd9d 80be
000000c0: 13b8 37bf 78fa 603f 3773 923f 4fd8 173f
000000d0: e022 cdbe ade5 f83e 8889 64be 4405 b83f
000000e0: a1be 08bf 08bf 303e 904c 26bd 520e 243f
000000f0: f3e9 5ebe b816 893e 9457 1f3e e59d 88be
00000100: e834 23be 7c92 d13d 6062 673d d1ab bebe
00000110: 980c 0e3d 4249 ffbe 64a2 ae3e 29eb 16bf
0.7098144 -0.7848438 0.51787126 0.33479562 -0.712224 -0.5957528 -0.034932993 0.33495125
0.2509117 0.12621221 -0.06050286 0.32562742 0.61240065 -0.99711686 -0.88943845 -1.3346021
0.24869314 -1.0334586 0.6654334 -1.6399186 0.5595287 0.25731984 -1.1549306 -1.1874754
0.22162539 0.1779865 0.14595637 0.2302652 0.10615161 0.15348569 0.19313681 0.37436917
-1.2546295 0.25594616 -0.23072757 0.7547361 -0.2880809 1.121185 -0.24448687 -0.3699416
0.2383283 0.11346012 0.3321283 -0.46088782 -0.17053163 -0.21293718 -0.05460056 -0.25120535
-0.7176525 0.87882185 1.1441411 0.59314436 -0.4006567 0.4861273 -0.22318089 1.4376607
-0.53415877 0.17260373 -0.04060036 0.6408435 -0.21768932 0.26775146 0.15560752 -0.26682964
-0.15938151 0.10233018 0.056490302 -0.3724046 0.03467998 -0.4986058 0.3410827 -0.58952576

gcn2.bias f4 [1, 1, 6]
00000000: 9827 46be 8d62 063f 175d e33d 7ea9 7b3d
00000010: a355 153e 763f 633e
-0.19351041 0.52494127 0.1110174 0.061440937 0.14583449 0.22192177

fc1.weight f4 [10, 4704]
00000000: cbbd 5339 a71d b63a 893a 0080 3641 0080
00000010: 97dc b934 1780 8b39 8d41 8cb8 67a8 be3a
00000020: b021 0080 8717 0000 9edf 99b9 e683 f539
00000030: 600a 62b9 5037 e43a 2025 0000 3cd7 0000
00000040: b56e 70b9 0212 1c3a 9a4d 89b9 2098 f83a
00000050: 5235 0000 664d 0080 20be d0b9 41c6 7d3a
00000060: cb0e 8c39 5567 a63a e70e 0080 a823 0080
00000070: ff9e 62b8 785a a739 c24e 743a b8cf 193a
00000080: 4bff 9825 26c2 4ea7 27e4 6339 0850 3eba
00000090: 69ca 9d3a 960e 3b39 8268 c6a7 d6ae 45ba
000000a0: 7fa0 8c39 552b bfba 3057 ac3a 6083 5939
000000b0: d95e ffb5 a892 7539 12e6 b939 e8df 97ba
000000c0: 479e 9c3a 3b4f 8d39 e48e d236 e68b 4137
000000d0: c857 3a39 825a 2eba 32c3 1439 f7e6 b53a
000000e0: af38 d637 c622 ff35 046a 1f37 47d1 3c3a
000000f0: 3173 563a b44b 363b 188d e436 9e60 333b
00000100: c1b7 98ba 056e 823b dc76 3c3b faab 43bb
00000110: b06e 8f3b edac db3b 5b14 16ba 499b 7c3a
00000120: cfa5 bf3b 755d 00bc 6335 bb3b 6508 063c
00000130: 9d2f 8b39 79d5 05bb af55 6b3b e421 abbb
00000140: 5c23 843b 870d 9f3b 5798 f739 ce7c bfba
00000150: c20a 043b 21e9 043b 0c4b 48ba bcea b939
00000160: 005e d038 7c77 373b 3253 743b 567d 40b8
00000170: 630b a3ba 1c28 943b 2ba1 9039 da56 9b39
00000180: f06e 9a3b 013c 90bb f7ab 8c39 126c b83b
00000190: 6aaa 803a fe7e 26bb d042 863b 90a7 b8ba
000001a0: ba6d 71ba 292f 853b 2451 c539 9a56 f8b9
000001b0: 9759 623b c423 e3b9 70f6 8bba 74cf e2b9
000001c0: 5597 413a 3c56 b2b9 e5c6 7f3b d6cf 21bb
000001d0: 464b a9b9 20d3 b8ba 442d f33a 32ed fcba
000001e0: 2358 863b db7b 2abb 1eea d737 60f0 cfb9
000001f0: 5f26 ea3a e237 91ba 7548 4f3b e784 a9ba
00000200: b60d acb8 e072 4bb6 897f 8a3a 1f9a 4239
00000210: 03a1 243b c49e 72ba 79fc a538 3c09 9138
00000220: 0109 733a e7af fc39 91e5 cc3a b68a c737
00000230: e512 81b7 1229 8638 befa cd39 fb5c 123a
00000240: e799 6c3a 48b2 2e3a 9c5d e5af d10e 07b2
00000250: d859 5939 b819 9e39 d0b4 db39 7ec9 8e3a
00000260: 4049 0000 59f0 68b1 98fd 8037 cbda b439
00000270: 4903 8139 bbe7 9a3a 0c09 0000 0f90 0080
00000280: 3e12 83b9 c29f ce39 7d08 b339 d4a4 a63a
00000290: ce23 0000 c0bf 0080 8f2a 6eb8 d5e2 8139
000002a0: c9ca 3835 302e b43a 480a 0000 7146 0080
000002b0: 05be 99b8 c7af e739 ed90 a2b9 9aa3 cd3a
000002c0: cb35 0000 6934 0000 efe5 f2b9 6b1d 323a
000002d0: 7b51 3bba e31e 183b 8f23 0000 9430 0080
000002e0: f2cc 29ba 0de0 e83a cb4c f5b9 bb1c 1c3b
000002f0: b074 0000 aa9f 0080 0285 2cba 7b7d 123b
00000300: 9fd2 5c3a f205 8a3a ef77 0080 ff4b 3e2d
00000310: e484 d538 627f 843a 6623 0f3b 9311 beb9
00000320: ab78 17ba f4c6 12bb ff66 533a 0220 98ba
00000330: 65ed 3a3b 4287 c4b8 dec7 0abb c785 2bbb
00000340: dcd0 853a 0407 b7ba 6dfa 553b e341 9db9
00000350: 0dad eeba 8b3d feba 5f67 9a3a f428 ebba
00000360: 10d0 323b 8097 34ba d593 8c36 3917 9bba
00000370: 20d6 a23a 0eb8 18bb 33d6 e73a 4e84 83ba
00000380: 03b5 3db8 2ce8 a0b9 58de 653a cca3 ebba
00000390: 08ae 523b 0181 24ba be80 dbb9 26ac 143b
000003a0: f657 8fb6 ff21 8b3a 9ca9 be3b 5e81 3abb
000003b0: ea45 d1b9 5461 6e3b b709 1a3b a83f 6a3b
000003c0: a437 cc3b cb07 54bb a2bb 26ba fe6a 723a
000003d0: d4d5 823b 43e9 cd3b 3ea9 913b 8511 3cbb
000003e0: b131 54bb 370a a1bb ed5e 853b 1197 fe3a
000003f0: ad5a bb39 55f0 dd3a a737 58bb 4b92 05bc
0.00020193231 0.0013894335 -2.0998e-41 -2.3393e-41 3.4619435e-07 0.0002660758 -6.68793e-05 0.0014546037
-1.2085e-41 8.44e-42 -0.00029349042 0.00046828313 -0.00021556905 0.0017411504 1.3318e-41 7.7212e-41
-0.00022929425 0.0005953611 -0.00026188494 0.0018966235 1.9128e-41 -2.7765e-41 -0.00039814506 0.0009680726
0.00026713902 0.001269559 -5.346e-42 -1.2791e-41 -5.4030676e-05 0.00031920127 0.0009319597 0.00058674393
2.654079e-16 -2.869349e-15 0.000217334 -0.00072598504 0.0012038472 0.00017839143 -5.5069347e-15 -0.0007541006
0.0002682246 -0.0014585058 0.0013148542 0.00020743674 -1.9026585e-06 0.00023419654 0.00035457365 -0.0011587115
0.0011949026 0.00026952647 6.2751224e-06 1.1536269e-05 0.00017771043 -0.000665106 0.00014187096 0.0013878037
2.5537183e-05 1.9009101e-06 9.501822e-06 0.00072028156 0.0008180617 0.0027816119 6.811355e-06 0.002737082
-0.0011651443 0.0039804005 0.002875737 -0.0029857145 0.0043772087 0.006703964 -0.0005725079 0.00096361764
0.0058486233 -0.007834782 0.0057131513 0.008180712 0.0002654762 -0.002042143 0.0035909226 -0.005222546
0.0040325355 0.0048539075 0.00047225013 -0.0014609338 0.0020148014 0.0020280557 -0.00076405774 0.0003546084
9.935722e-05 0.0027994802 0.0037281034 -4.5893095e-05 -0.0012439307 0.004521383 0.000275859 0.00029628613
0.004712932 -0.0044016843 0.00026831005 0.0056281174 0.0009816412 -0.0025405283 0.00409732 -0.0014088023
-0.0009209771 0.00406446 0.00037635223 -0.0004736677 0.0034538263 -0.0004332346 -0.0010678302 -0.00043260644
0.0007384916 -0.00034015055 0.0039028462 -0.002469053 -0.00032290275 -0.0014101006 0.0018552919 -0.0019296764
0.004099862 -0.0026013765 2.5739017e-05 -0.0003966121 0.0017864219 -0.0011079276 0.003162888 -0.0012933285
-8.204153e-05 -3.0316223e-06 0.0010566573 0.00018558696 0.0025120385 -0.00092552253 7.91484e-05 6.915859e-05
0.0009271056 0.00048196243 0.0015632381 2.3787241e-05 -1.5386797e-05 6.397268e-05 0.00039287464 0.0005583313
0.0009025619 0.0006664139 -4.172137e-10 -7.861403e-09 0.00020728202 0.0003015527 0.0004190565 0.001089379
2.6277e-41 -3.3897065e-09 1.5376878e-05 0.0003449529 0.00024607245 0.0011818329 3.245e-42 -5.1678e-41
-0.0002499986 0.0003941041 0.00034147865 0.0012713918 1.2844e-41 -6.8787e-41 -5.6783258e-05 0.000247738
6.884043e-07 0.0013746675 3.688e-42 -2.527e-41 -7.3310024e-05 0.00044190718 -0.00031007026 0.0015689016
1.9297e-41 1.8801e-41 -0.0004632915 0.0006794545 -0.00071456254 0.002321177 1.2756e-41 -1.7427e-41
-0.00064773776 0.0017766968 -0.00046787257 0.0023820836 4.186e-41 -5.7277e-41 -0.0006581099 0.0022352624
0.0008423719 0.0010530336 -4.3024e-41 1.0817124e-11 0.00010181384 0.0010108764 0.0021841167 -0.00036252718
-0.0005778174 -0.0022396417 0.0008064359 -0.0011606219 0.0028522846 -9.371202e-05 -0.002117626 -0.0026172267
0.001020934 -0.0013963883 0.0032650486 -0.00029994463 -0.0018209532 -0.0019397003 0.0011780075 -0.0017941282
0.002728466 -0.00068890303 4.189535e-06 -0.0011832482 0.0012423433 -0.0023303065 0.0017687738 -0.0010033937
-4.522969e-05 -0.0003069056 0.00087687885 -0.0017977892 0.0032147188 -0.00062753266 -0.00041866855 0.0022685616
-4.271972e-06 0.001061499 0.005818559 -0.0028458457 -0.00039915676 0.003637393 0.0023504326 0.0035743508
0.006232219 -0.0032353278 -0.0006360357 0.00092475105 0.0039927755 0.0062839105 0.004445224 -0.0028696966
-0.0032378251 -0.004914548 0.004070154 0.0019423683 0.00035734978 0.0016932586 -0.0032992156 -0.008152555

fc1.bias f4 [10]
00000000: b34c c9ba 52bc 763d 77c5 d93b 836f 71bc
00000010: 66e2 0a3c 7758 da3c e080 2ebc 470d 203d
00000020: 7a1e 84bd 461f c6bc
-0.0015357941 0.06023819 0.006645854 -0.014736059 0.008476829 0.026653511 -0.010650843 0.039075162
-0.064511254 -0.024184834
