examples/pytorch_based/mnist_gcn_simple_two_layer.pt (torch_old, 631998 bytes, 6 tensors)

gcn1.weight f4 [8, 1, 10]
0	0xbeaa8719	-0.33306196
1	0xbf520809	-0.8204351
2	0xbe2de432	-0.16981581
3	0x3f3fa15c	0.7485559
4	0xbe9fe987	-0.31232855
5	0x3f1a3a82	0.60245526
6	0xbf44ce36	-0.7687715
7	0xbcb88eb0	-0.022528976
8	0x3f996735	1.1984621
9	0x3e99deaf	0.30052707
10	0x3e4d6d32	0.20061186
11	0x3f165ff0	0.5874014
12	0x3e470356	0.19434866
13	0xbf7b3c13	-0.9813854
14	0xbe1fd223	-0.15607505
15	0xbde6960b	-0.11259087
16	0x3ef4b4b1	0.47794107
17	0x3de2f848	0.11082512
18	0xbf5664ca	-0.8374754
19	0x3da71866	0.081589505
20	0x3d929608	0.071575224
21	0x3f0d0a9c	0.55094314
22	0xbe319412	-0.1734164
23	0xbd90c608	-0.070690215
24	0x3ea8e521	0.3298731
25	0xbd8da40d	-0.06916056
26	0xbe947d56	-0.29001874
27	0xbc8c9500	-0.017160892
28	0xbdba93c3	-0.091102146
29	0xbe89ff46	-0.2695257
30	0x3df0b7fc	0.11753842
31	0xbf88022e	-1.0625665
32	0x3e5177fa	0.20455924
33	0x40978123	4.7345138
34	0x3c8f3720	0.01748234
35	0x3e4ffef3	0.20312099
36	0x3d99e1f3	0.075137995
37	0xbd54dac8	-0.05196646
38	0x3db42fd8	0.08798188
39	0xbf2922aa	-0.6606852
40	0xbd8128dc	-0.063066214
41	0xbe120ac9	-0.14261927
42	0x3cefee20	0.029288352
43	0xc03fd7ce	-2.9975467
44	0xbe128e42	-0.1431208
45	0x3ed31e1e	0.41233915
46	0x3ea6db0c	0.32588995
47	0xbe9d4db8	-0.30723357
48	0x3f8a9ed6	1.0829723
49	0x3f634dd9	0.8879066
50	0x3e370cae	0.1787593
51	0x3e06478c	0.1311323
52	0x3e0520fe	0.13000867
53	0x3f8254e4	1.0182157
54	0x3e963743	0.29339036
55	0xbe06b7dc	-0.13156074
56	0xbe9cf4e6	-0.30655593
57	0xbe320c3f	-0.17387484
58	0xbec0b1b6	-0.37635583
59	0xbea64053	-0.3247095
60	0xbb1d0a00	-0.002396226
61	0x3fac42fc	1.3457942
62	0x3de84708	0.11341673
63	0xbdbd7962	-0.092516676
64	0xbdd98448	-0.10620934
65	0xbf0864e2	-0.53278935
66	0x3eac1c30	0.33615255
67	0xbe03570f	-0.12826179
68	0xbf692f5a	-0.9108788
69	0x3d1bae02	0.038007744
70	0xbdb82f30	-0.08993375
71	0xbfaa531f	-1.3306617
72	0xbeb11de4	-0.34593117
73	0x3ee3352d	0.44376507
74	0x3e40af7a	0.18816939
75	0x3da8e7f3	0.08247366
76	0xbf3692e4	-0.7131789
77	0x3c4985c0	0.012299955
78	0x3ead7193	0.33875713
79	0xbf311115	-0.6916669

gcn1.bias f4 [1, 1, 10]
0	0xbe08bc1e	-0.13353011
1	0x3e57440a	0.21022049
2	0xbe69852f	-0.22804712
3	0x3ebff603	0.3749238
4	0xbe88819d	-0.26661387
5	0x3ede89bc	0.43464458
6	0x3ec45dac	0.38352716
7	0xbea75219	-0.32679823
8	0x3cb9ff52	0.022704754
9	0xbda29a62	-0.079396024

gcn2.weight f4 [4, 10, 20]
0	0x3c0df980	0.0086654425
1	0x3d2ba110	0.041901648
2	0xbe04743d	-0.12934966
3	0xbdad6282	-0.084660545
4	0x3d92ed92	0.07174219
5	0xbdf6e94c	-0.120562166
6	0xbd07d88e	-0.033165507
7	0x3d8e6670	0.06953132
8	0x3da8110c	0.082063764
9	0x3c2112a0	0.009831101
10	0x3d3bbe50	0.045835793
11	0x3d900c06	0.07033543
12	0xbc9751c0	-0.018471599
13	0xbd30f434	-0.04320164
14	0x3df7490e	0.12074481
15	0x3e1dd4f7	0.15413271
16	0x3d95fe1a	0.07323857
17	0xbd8d8d45	-0.06911711
18	0xbe0cd5d2	-0.13753441
19	0xbe1fce6f	-0.15606092
20	0xbe60b742	-0.21944907
21	0xbd84f49c	-0.06491968
22	0xbc56c438	-0.013108306
23	0xbf57f722	-0.8436147
24	0x3e0070ec	0.12543076
25	0x3d9e81f6	0.07739632
26	0xbf1713e5	-0.5901473
27	0xbed92f62	-0.42418963
28	0x3d9d41f0	0.07678592
29	0xbdf39e4d	-0.11895428
30	0xbe1a0ec4	-0.15044695
31	0xbcbdfd23	-0.023191994
32	0x3f1ba019	0.60791165
33	0xbe052f3b	-0.13006298
34	0xbd0bdf3e	-0.034148447
35	0x3d1856c2	0.037192114
36	0xbec806c0	-0.3906765
37	0xbdf6c5eb	-0.120494686
38	0x3e9b81a1	0.30372337
39	0xbf66988e	-0.9007653
40	0x3dbce436	0.09223215
41	0x3c679690	0.014135018
42	0x3d1e03b8	0.038577765
43	0xbdd7cfe6	-0.105377
44	0xbd0a5144	-0.033768907
45	0x3dd59b3a	0.10429998
46	0x3d9485e4	0.072521
47	0xbd3b3f5e	-0.04571473
48	0x3c9f57b0	0.019450992
49	0x3df7eb9e	0.12105487
50	0xbe0ddd28	-0.13853896
51	0x3dd000de	0.101564154
52	0xbd42a3de	-0.047519557
53	0xbd03c084	-0.03216602
54	0x3d9a1774	0.075240046
55	0xbe0681c9	-0.13135447
56	0xbcc3ad00	-0.023886204
57	0x3e1ab937	0.15109716
58	0x3d6916ac	0.056906387
59	0xbd6f79a2	-0.058465607
60	0x3f240fe8	0.6408677
61	0x3df4c94e	0.11952458
62	0x3d70c3f3	0.05878062
63	0xbedd954c	-0.43277967
64	0xbe9c277a	-0.30498868
65	0x3d5c7a62	0.05382765
66	0xbf029759	-0.5101219
67	0xbe1dc7ac	-0.154082
68	0x3e16572d	0.14681692
69	0x3f7103da	0.941465
70	0x3ddf355e	0.10898851
71	0x3eaa544c	0.33267438
72	0x3c8af6d1	0.016963394
73	0xbce14d40	-0.027502656
74	0xbe0ee5e2	-0.13954881
75	0x3f379849	0.71716744
76	0xbea934cf	-0.33048102
77	0x3eb02698	0.34404445
78	0x3f05ac4d	0.52216035
79	0xbcae51f6	-0.021279316
80	0xbd38aaa0	-0.045084596
81	0xbdf6abb8	-0.120444715
82	0x3e1f64b1	0.15565754
83	0x3df3554e	0.11881505
84	0x3d9a006a	0.0751961
85	0x3e204347	0.15650664
86	0xbdac6721	-0.08418108
87	0xbdb8684d	-0.09004269
88	0xbdbd8b3c	-0.092550725
89	0xbbfad680	-0.007654965
90	0xbe0eec4a	-0.13957325
91	0x3e002c6f	0.1251695
92	0x3b854800	0.004067421
93	0x3da1426a	0.078739956
94	0xbdb1d4c0	-0.08683157
95	0xbc8570e8	-0.01628919
96	0x3caa5cf0	0.02079627
97	0xbd3142d2	-0.043276615
98	0x3e18d357	0.1492437
99	0xbd93f19c	-0.07223818
100	0xbdec2bfc	-0.11531827
101	0xbde6a174	-0.112612635
102	0xbd3507e2	-0.04419697
103	0x3eb1c1c9	0.3471816
104	0x3de55160	0.11197162
105	0x3da86285	0.08221916
106	0x3e885392	0.2662626
107	0x3dde4123	0.108522676
108	0xbd25d6c8	-0.040488034
109	0x3da2baa9	0.07945759
110	0xbd3ed8d6	-0.04659351
111	0x3e18456b	0.14870231
112	0xbec0dff2	-0.37670857
113	0x3dfa2fb5	0.12216131
114	0x3e2142ab	0.15748088
115	0xbe11cd5b	-0.14238493
116	0x3e56847e	0.2094898
117	0xbdfaafab	-0.12240537
118	0xbdf73aee	-0.12071787
119	0x3e2ebf6b	0.17065208
120	0xbda07deb	-0.07836517
121	0xbd3aa138	-0.045563906
122	0x3dc95ffe	0.09832762
123	0xbef00426	-0.46878165
124	0xbe849a8c	-0.2589916
125	0xbe470a67	-0.19437562
126	0xbf32986b	-0.6976382
127	0xbf1d45c0	-0.61434555
128	0xbcf016a0	-0.029307663
129	0x3e06ee63	0.13176875
130	0xbcfbcb2e	-0.030736532
131	0xbea01b61	-0.31270888
132	0x3e2edbf5	0.17076094
133	0x3dd0a37e	0.10187434
134	0xbdc26e7a	-0.09493728
135	0x3e4feda4	0.20305496
136	0xbec3d3dd	-0.38247576
137	0x3e77d7a0	0.24203348
138	0xbeee4fa2	-0.4654513
139	0xbf410e39	-0.7541233
140	0x3d5bb814	0.053642347
141	0xbe170b03	-0.14750294
142	0xbe04aefc	-0.12957376
143	0x3da4a7de	0.080398306
144	0x3d9d30c8	0.0767532
145	0xbe1388d5	-0.14407666
146	0x3de9030e	0.11377536
147	0xbcfbdc38	-0.030744657
148	0x3df0687e	0.1173868
149	0xbdbe07ed	-0.092788555
150	0xbe19f439	-0.1503457
151	0xbdd6a9d3	-0.1048161
152	0xbcc8cd80	-0.024512053
153	0xbe21b3bc	-0.1579122
154	0xbc308120	-0.010772973
155	0xbda19ca2	-0.078912035
156	0xbd16bcfa	-0.036801316
157	0xb7bca000	-2.2485852e-05
158	0x3c1164c0	0.008874118
159	0xbe1e604a	-0.15466419
160	0xbea5543a	-0.32290822
161	0xbdc838c2	-0.09776451
162	0x3d8d61b3	0.069034
163	0x3f5609c8	0.83608675
164	0x3d0fb2cf	0.035082635
165	0xbc0f1d06	-0.008734947
166	0x3f01ab45	0.5065196
167	0x3e9b79dd	0.30366412
168	0xbe077924	-0.13229805
169	0xbf1af456	-0.6052908
170	0x3d8a67ea	0.06758101
171	0xbc864cc8	-0.016394034
172	0xbf46089b	-0.7735688
173	0xbcf4eee2	-0.029899064
174	0x3cfdf4d8	0.03100054
175	0xbf80a8d3	-1.0051521
176	0x3e58d989	0.21176733
177	0xbef5afc6	-0.47985667
178	0x37e40dc4	2.7186128e-05
179	0x3eb95a7e	0.36201853
180	0xbeaa41fd	-0.3325347
181	0x3df8bd10	0.12145436
182	0x3c727ae6	0.014799809
183	0x3ee95322	0.45571238
184	0x3e469f4a	0.19396701
185	0xbb97d603	-0.0046336665
186	0x3da1a000	0.07891846
187	0x3d2a37ab	0.041556995
188	0xbbb44d80	-0.005502403
189	0xbbd02f80	-0.0063533187
190	0xbd3db5c0	-0.04631591
191	0x3deed55c	0.11661789
192	0xbcd6bbaf	-0.026212541
193	0xbd2c5dde	-0.042081706
194	0xbdd34140	-0.1031518
195	0x3edda73e	0.43291658
196	0x3de914ae	0.113808975
197	0x3e2de4f5	0.16981871
198	0x3e1024df	0.14076565
199	0x3e69f747	0.22848235
200	0xbda2cb9e	-0.07948993
201	0xbd414c0e	-0.047191672
202	0xbbe6a6a0	-0.007038906
203	0x3dc91356	0.09818141
204	0xbc3d5720	-0.011556417
205	0xbd242f64	-0.040084258
206	0xbcb00868	-0.021488383
207	0x3cd4a720	0.025958598
208	0x3e013a29	0.12619843
209	0x3df45dc2	0.119319454
210	0xbc1783f0	-0.009247765
211	0x3cabb1a8	0.020958737
212	0x3e12d5a3	0.14339308
213	0x3d8e43cc	0.06946525
214	0xbc88ac58	-0.016683742
215	0x3dbff65e	0.09373163
216	0x3d937e86	0.07201867
217	0xbd2deeb6	-0.04246398
218	0x3d82fe9e	0.063962206
219	0x3c4d5450	0.012532309
220	0x3e3cd3c2	0.18440154
221	0xbc047494	-0.008084435
222	0x3e2ca3bf	0.16859339
223	0x3d1d8ce6	0.03846445
224	0xbd829450	-0.063759446
225	0x3e10b3dd	0.14131112
226	0x3e392ce9	0.18083538
227	0x3f16222e	0.58645904
228	0x3a2e2b00	0.0006643981
229	0x3d779ebd	0.06045412
230	0x3d86c5a5	0.065806665
231	0x3ea8f9d3	0.330031
232	0xbd80e793	-0.06294169
233	0xbd837834	-0.06419411
234	0x3da9b222	0.08285929
235	0xbe6bd9e1	-0.23032333
236	0x3e7d3b11	0.24729563
237	0xbe54b31c	-0.2077145
238	0x3d62884c	0.055305764
239	0x3e01ce8f	0.12676452
240	0x3ce43990	0.02785948
241	0x3cb59a80	0.022168398
242	0x3c84d420	0.01621443
243	0x3c28de00	0.010306835
244	0x3bda02e0	0.0066531748
245	0xbe0cb1bb	-0.13739674
246	0x3e1c497f	0.15262412
247	0x3e1a9291	0.15094973
248	0xbddeec5e	-0.10884927
249	0x3d2024e0	0.039097667
250	0x3e05d573	0.13069706
251	0x3cfad218	0.030617759
252	0x3d8b498e	0.06801139
253	0x3df12ce6	0.11776142
254	0x3d89744e	0.067116365
255	0xbcea2038	-0.028579816

gcn2.bias f4 [1, 1, 20]
0	0x3cb3721e	0.021905001
1	0xbc14298f	-0.0090431115
2	0xbd09348c	-0.03349738
3	0x3e3f28f2	0.18667963
4	0xbd77ee2f	-0.060529884
5	0xbe2d361a	-0.1691517
6	0x3de040c3	0.10949852
7	0x3dd2c5f4	0.10291663
8	0xbdf76be6	-0.12081127
9	0x3d03f940	0.032220125
10	0xbdeb1b4e	-0.11479817
11	0xbc4c5ff8	-0.012474053
12	0xbd1f0a67	-0.03882828
13	0xbd82d7da	-0.06388827
14	0xbd1a7654	-0.037710503
15	0xbe496489	-0.19667257
16	0x3db77322	0.08957507
17	0xbe181dfb	-0.14855187
18	0xbd3e73ec	-0.04649727
19	0x3e21d9d4	0.15805751

fc1.weight f4 [10, 15680]
0	0xbc433ec6	-0.011916822
1	0x800082b6	-4.689e-41
2	0x0000ad0c	6.2078e-41
3	0x00000bb6	4.201e-42
4	0x000087b6	4.8684e-41
5	0x8000a7a3	-6.0137e-41
6	0x00003829	2.0146e-41
7	0x000016c8	8.172e-42
8	0x0000239a	1.2771e-41
9	0xbc9202e3	-0.017823642
10	0x80011b57	-1.01643e-40
11	0x800052aa	-2.9654e-41
12	0x00002adb	1.5374e-41
13	0x00011930	1.00871e-40
14	0x8000d51c	-7.6449e-41
15	0x37d96289	2.59143e-05
16	0x8000631c	-3.5554e-41
17	0xa05413c5	-1.796364e-19
18	0x0000b771	6.5806e-41
19	0x000005a5	2.025e-42
20	0xbc5d928c	-0.013523709
21	0x80007ec2	-4.5472e-41
22	0x000016dc	8.2e-42
23	0x80002571	-1.3431e-41
24	0x80002deb	-1.6472e-41
25	0x80011438	-9.9089e-41
26	0x8000196e	-9.122e-42
27	0x8000029c	-9.36e-43
28	0x80008b05	-4.9871e-41
29	0xbca3e173	-0.020004964
30	0x00011c6b	1.0203e-40
31	0x80003617	-1.9404e-41
32	0x8000040a	-1.449e-42
33	0x00010ede	9.7169e-41
34	0x0000e39b	8.165e-41
35	0x387a918a	5.974019e-05
36	0x00000d88	4.854e-42
37	0x388b93ca	6.655564e-05
38	0x80005719	-3.1245e-41
39	0x00001d6e	1.0557e-41
40	0xbc549a76	-0.0129762795
41	0x8000ad7d	-6.2236e-41
42	0x8000e4cd	-8.2078e-41
43	0x37c50511	2.348659e-05
44	0x00005474	3.0296e-41
45	0x000088f5	4.9131e-41
46	0x80000dce	-4.952e-42
47	0x00001a22	9.375e-42
48	0x8000dfb3	-8.0248e-41
49	0xbca48933	-0.020084953
50	0x0000c254	6.9712e-41
51	0x0000b8dc	6.6315e-41
52	0x800016fd	-8.247e-42
53	0x000096d1	5.4103e-41
54	0x0000d25c	7.5463e-41
55	0x39ab53cd	0.00032678098
56	0x000060f3	3.4779e-41
57	0x397d884d	0.00024178736
58	0x00002cc2	1.6056e-41
59	0x800007e9	-2.838e-42
60	0xbc39344e	-0.011303974
61	0x000045b1	2.5e-41
62	0x80002660	-1.3766e-41
63	0xb92aff46	-0.0001630756
64	0x0000640f	3.5894e-41
65	0x0000897e	4.9323e-41
66	0x00001571	7.692e-42
67	0x80001749	-8.353e-42
68	0x8000e025	-8.0408e-41
69	0xbc9fba50	-0.01949802
70	0x00002e9a	1.6717e-41
71	0x800039b1	-2.0696e-41
72	0x00000882	3.052e-42
73	0x000052e2	2.9733e-41
74	0x0000bc2a	6.75e-41
75	0x390421e2	0.00012601123
76	0x80003eb8	-2.2499e-41
77	0xb9a92132	-0.00032258924
78	0x80000d8a	-4.857e-42
79	0x80002916	-1.4739e-41
80	0xbc21af1d	-0.00986841
81	0x000062da	3.5461e-41
82	0x0000a9bf	6.0893e-41
83	0xb4a3d158	-3.0513434e-07
84	0x000070f8	4.0526e-41
85	0x0000aca1	6.1928e-41
86	0x1fd1bbc7	8.8825595e-20
87	0x80000ce8	-4.63e-42
88	0x8000e1b2	-8.0964e-41
89	0xbc981a47	-0.018567218
90	0x80000a14	-3.615e-42
91	0x8000219c	-1.2057e-41
92	0x00003b44	2.126e-41
93	0x00005b7e	3.2821e-41
94	0x8000171b	-8.289e-42
95	0xba409a6a	-0.0007347228
96	0x80002f7a	-1.7031e-41
97	0xba39879a	-0.0007077396
98	0x80002dae	-1.6387e-41
99	0x800013c4	-7.09e-42
100	0xbc0d2ce4	-0.00861666
101	0x000110a8	9.781e-41
102	0x000081d8	4.6579e-41
103	0xb8b3bcd8	-8.57056e-05
104	0x80009540	-5.3541e-41
105	0x80007f13	-4.5586e-41
106	0x2d8460d4	1.5049663e-11
107	0x80000f6c	-5.532e-42
108	0x00001487	7.364e-42
109	0xbc87a5a5	-0.016558478
110	0x00012001	1.03316e-40
111	0x80002133	-1.191e-41
112	0xa949ba15	-4.4792366e-14
113	0x800022b7	-1.2453e-41
114	0x00007330	4.1321e-41
115	0xba8fb807	-0.0010964879
116	0x0000086d	3.023e-42
117	0xbad71888	-0.0016410509
118	0x27247c52	2.2826966e-15
119	0x80000484	-1.62e-42
120	0xbbee2631	-0.0072677364
121	0x000107c2	9.4618e-41
122	0x0000e293	8.128e-41
123	0xb8cf3a00	-9.8813325e-05
124	0x80007c0a	-4.4497e-41
125	0x00008b32	4.9934e-41
126	0x31abdafc	5.0016506e-09
127	0x000016c1	8.163e-42
128	0x0000110f	6.12e-42
129	0xbc7d3bca	-0.015456149
130	0x00010955	9.5183e-41
131	0x272f6175	2.433896e-15
132	0xb814dd4b	-3.5492045e-05
133	0x00008750	4.8541e-41
134	0x00009aee	5.5578e-41
135	0xbaa983ff	-0.0012933015
136	0x00003628	1.9428e-41
137	0xbb04adc6	-0.0020245179
138	0xa8877cd4	-1.5042146e-14
139	0x0ef936b8	6.143593e-30
140	0xbbecf669	-0.007231523
141	0x80009d8f	-5.6521e-41
142	0x00001949	9.07e-42
143	0xba470e26	-0.0007593356
144	0x8000835c	-4.7123e-41
145	0x00007a48	4.3866e-41
146	0xb53e54c8	-7.090389e-07
147	0x000020c3	1.1753e-41
148	0x0000ac7d	6.1877e-41
149	0xbc6bb5d8	-0.014386617
150	0x00011975	1.00968e-40
151	0xb351de9b	-4.8864063e-08
152	0x38b0a8b2	8.423756e-05
153	0x00013a0e	1.12662e-40
154	0x80013310	-1.10153e-40
155	0x3a4d2fe5	0.0007827266
156	0x0481f128	3.054922e-36
157	0x394282c3	0.00018549994
158	0xb2bc19b8	-2.1897776e-08
159	0x2d96771d	1.7105923e-11
160	0xbbe3e6de	-0.0069550117
161	0x0000baf6	6.7069e-41
162	0x00001843	8.703e-42
163	0xba0b2ed1	-0.00053094054
164	0xaf0f1234	-1.3012241e-10
165	0x00001aa3	9.555e-42
166	0x35d97216	1.6200963e-06
167	0x800009d7	-3.53e-42
168	0x0000add1	6.2354e-41
169	0xbc7656e0	-0.015035361
170	0x800113bd	-9.8916e-41
171	0x35be4c13	1.4178244e-06
172	0xb6550715	-3.1743596e-06
173	0x00011d3d	1.02324e-40
174	0x0000eecc	8.5664e-41
175	0xbaadfff7	-0.0013275136
176	0xafebfc6c	-4.2925608e-10
177	0xbb6bcc9b	-0.0035980109
178	0x3597ad3e	1.1300797e-06
179	0xaf117f34	-1.3232865e-10
180	0xbc0419c6	-0.0080627855
181	0x80008b6e	-5.0018e-41
182	0x000140e0	1.15108e-40
183	0xba85e516	-0.0010215368
184	0x33b9fe9d	8.661048e-08
185	0x00011bdc	1.0183e-40
186	0x3814bbc4	3.546082e-05
187	0x80000325	-1.128e-42
188	0x80010ff8	-9.7564e-41
189	0xbc7baf96	-0.015361687
190	0x800113ed	-9.8984e-41
191	0xb6e7b73d	-6.905668e-06
192	0xb6928bdd	-4.3674213e-06
193	0x8000764f	-4.2441e-41
194	0x00007630	4.2398e-41
195	0xbb8b6fbe	-0.004255264
196	0x25241b9e	1.423409e-16
197	0xbc060fe4	-0.0081825
198	0x36804d0c	3.8236667e-06
199	0xb08396ad	-9.574329e-10
200	0xbc335069	-0.010944464
201	0x80002a65	-1.5208e-41
202	0x0001193b	1.00886e-40
203	0xba62481f	-0.00086319627
204	0x33e59f3d	1.0692609e-07
205	0x8000f4b0	-8.7777e-41
206	0xb6a199a3	-4.8160596e-06
207	0x800007c1	-2.782e-42
208	0x8000064b	-2.257e-42
209	0xbc74bd58	-0.014937721
210	0x00008cc3	5.0496e-41
211	0xb710c457	-8.628783e-06
212	0xb90cef76	-0.00013440647
213	0x000142a3	1.1574e-40
214	0x0000ffa7	9.1711e-41
215	0xbb0b42ea	-0.00212496
216	0xa8fad713	-2.784885e-14
217	0xbbbaf12f	-0.005705021
218	0xb7134b8a	-8.779471e-06
219	0xb6314580	-2.641551e-06
220	0xbc744b87	-0.014910585
221	0x80000f1b	-5.419e-42
222	0x8000e19e	-8.0936e-41
223	0x3a85b103	0.0010199848
224	0x33132580	3.426021e-08
225	0x80005363	-2.9914e-41
226	0xba13bb54	-0.0005635519
227	0x800006ad	-2.395e-42
228	0x00000923	3.278e-42
229	0xbc5eb200	-0.013592243
230	0x00008baf	5.0109e-41
231	0x37e03df6	2.6731734e-05
232	0x3a1dd174	0.00060202857
233	0x80002801	-1.435e-41
234	0x00010e97	9.707e-41
235	0x3afdd30a	0.0019365263
236	0x32c38845	2.2762956e-08
237	0xb9b6890e	-0.0003481586
238	0x3a6b233d	0.00089697895
239	0xb7e30c3b	-2.7066204e-05
240	0xbc9e27be	-0.01930606
241	0x00011b22	1.01569e-40
242	0x80004d51	-2.7736e-41
243	0xbb56b44e	-0.0032761279
244	0xb31e1090	-3.6802305e-08
245	0x0000515b	2.9185e-41
246	0xbade3b7f	-0.0016954987
247	0x3220a56a	9.3508365e-09
248	0x0000148c	7.371e-42
249	0xbc7a80fb	-0.01528954
250	0x80008972	-4.9306e-41
251	0x3a7b00a6	0.0009574987
252	0x39e30296	0.0004329874
253	0x8000abda	-6.1649e-41
254	0x8000a817	-6.0299e-41
255	0x3bae28f8	0.0053149424

fc1.bias f4 [10]
0	0xbcbc97d5	-0.023021618
1	0x3c5c79ef	0.013456806
2	0x3bf25a60	0.0073960274
3	0x3c46c42e	0.012131734
4	0x3c64134a	0.0139206145
5	0x3d12a398	0.035800546
6	0xbc8a5690	-0.01688698
7	0x3cccc3cc	0.024995707
8	0xbd010c68	-0.031505972
9	0xbd03773e	-0.03209614
