examples/saved_models/mnist_tgcn.pt (torch_old, 610007 bytes, 4 tensors)

tgcn1.weight f4 [10, 12, 1, 15]
-0.10405683 -0.25717923 -0.41201368 0.08633257 -0.5024789 -0.006217157 0.2215138 0.6041498
-0.05558642 -0.06687601 0.08416562 -0.2846568 0.4280796 -0.123312585 -0.21222298 -0.028469145
0.045835316 -0.0012632608 0.27643576 0.09840697 -0.11776519 -0.19098935 -0.053004712 -0.1364019
-0.10133472 0.015141487 0.18851212 0.17188138 -0.30912873 0.19603607 0.08834261 0.29995957
0.20872924 -0.28812703 -0.30067202 -0.15252681 0.2776833 -0.052673727 0.13533264 -0.14695466
0.31028834 -0.13379547 0.23714706 0.0037446618 -0.1665943 0.16254577 -0.16786006 0.09300408
-0.09131305 -0.03466943 -0.3040176 -0.15077162 0.17159593 -0.07686779 0.3149785 0.25348452
-0.014806926 -0.21107668 0.19257078 0.09814352 -0.20441587 0.20540401 0.19198242 0.2804608
-0.17726451 -0.052052975 -0.006125927 0.04618743 -0.23999104 -0.22440231 0.17202935 -0.07415286
0.15446886 0.01802811 0.10383174 0.0695349 0.11498022 0.1567575 -0.29286236 0.1591737
-0.22234708 -0.23859668 0.0192312 -0.053887486 0.18572816 -0.18313877 -0.28112078 0.23014072
-0.046890825 0.17786458 0.10166234 -0.23713139 0.06352961 0.07595682 -0.21173304 -0.15004131
0.107825965 0.056643516 -0.13451463 -0.095727175 0.28962752 -0.058508873 0.17828655 0.13692763
-0.20441188 -0.26892942 0.30354348 0.016512394 0.21676084 0.06553233 0.10170603 0.23620906
0.2998518 -0.20984274 0.03953764 0.23598728 0.22908649 0.19645283 -0.22886 -0.22771695
-0.19124559 0.03972718 0.31517312 -0.19975337 0.16851175 -0.17502831 -0.2973223 -0.06721094
0.18220124 0.29357794 -0.1963897 0.06862497 0.27286038 0.20954946 0.19708046 0.22472176
0.20001927 0.08168048 -0.21624291 -0.26555496 -0.14490208 -0.03682342 -0.19383252 0.11569309
0.09786865 -0.07160513 0.121539205 0.10219997 0.19306937 0.21296158 -0.1070914 0.3089626
-0.03655839 -0.010864317 -0.29848108 -0.20352931 -0.18474136 -0.13525787 0.22482833 -0.10333724
-0.23631106 0.12166861 0.101246506 0.20481774 -0.16363905 0.068562925 -0.115122914 -0.07104838
-0.25200772 -0.14412427 -0.09684719 0.13523015 0.057771474 0.07811347 0.31562856 0.30820426
0.21568224 0.010069817 -0.21876365 0.24713507 0.16557421 0.05196809 0.075105555 -0.046256583
-0.60220164 0.45417574 -0.10742384 -0.36278883 0.08976671 -0.22375464 0.19454254 0.17938742
-0.13591027 0.017862855 0.45572048 -0.22244212 0.14850256 0.20315781 0.30933312 -0.22133759
0.07658717 -0.2338273 0.2699795 -0.12266675 0.19048068 0.009414554 -0.024628669 -0.0100901425
0.053756982 0.14906853 0.05071658 0.09646684 -0.28445467 0.23038378 0.27570757 0.26139572
0.23376271 -0.22819988 -0.11722563 0.27882603 -0.24085757 0.2868885 -0.24871188 -0.22275352
0.1545968 -0.22720619 -0.072448 0.2300531 0.2504805 0.2990742 -0.064168125 -0.24579144
0.31136128 -0.06736478 -0.13010721 0.07708806 -0.22114581 0.20785025 0.1981903 -0.2509208
-0.25974077 -0.027700424 0.1328237 -0.009158641 -0.160352 0.0072297454 -0.29723266 -0.22349745
-0.21050945 0.26042315 0.27875665 -0.107412055 0.014182925 0.14103061 0.03788957 -0.15835187
00000000: bf1b d5bd ffac 83be 75f3 d2be 21cf b03d
00000010: 75a2 00bf 4bb9 cbbb 83d4 623e 90a9 1a3f
00000020: 96ae 63bd 4af6 88bd 065f ac3d 89be 91be
00000030: 402d db3e 4f8b fcbd fb50 59be 2038 e9bc
00000040: d0bd 3b3d 0094 a5ba fd88 8d3e 9889 c93d
00000050: e02e f1bd b692 43be 781b 59bd f1ac 0bbe
00000060: 9488 cfbd 0014 783c 5209 413e ac01 303e
00000070: 1f46 9ebe aebd 483e f8ec b43d 4d94 993e
00000080: 1ebd 553e 6385 93be aff1 99be fd2f 1cbe
00000090: 812c 8e3e 68c0 57bd a494 0a3e 487b 16be
000000a0: 1dde 9e3e ae01 09be aed6 723e 0069 753b
000000b0: b297 2abe 6672 263e 82e3 2bbe ec78 be3d
000000c0: 5602 bbbd 8801 0ebd 32a8 9bbe e063 1abe
000000d0: d8b6 2f3e dc6c 9dbd dd44 a13e b9c8 813e
000000e0: c098 72bc 7c24 58be 4631 453e 78ff c83d
000000f0: 6552 51be 6e55 523e 0a97 443e 8f98 8f3e
00000100: d484 35be 8035 55bd 00bc c8bb 082f 3d3d
00000110: 36c0 75be b8c9 65be 7628 303e 74dd 97bd
00000120: 162d 1e3e b0af 933c bca5 d43d 5068 8e3d
00000130: c07a eb3d 0a85 203e 0ef2 95be 6efe 223e
00000140: f4ae 63be b052 74be c08a 9d3c 20b9 5cbd
00000150: 862f 3e3e bb88 3bbe 10ef 8fbe 02aa 6b3e
00000160: 9810 40bd 2222 363e 5834 d03d 92d2 72be
00000170: d01b 823d 408f 9b3d 8cd0 58be 6ea4 19be
00000180: dcd3 dc3d 0803 683d 34be 09be 9c0c c4bd
00000190: 0f4a 943e 00a7 6fbd c090 363e c236 0c3e
000001a0: 5951 51be 1eb1 89be 0d6a 9b3e 0045 873c
000001b0: 8ef6 5d3e d035 863d 404b d03d cae0 713e
000001c0: 2d86 993e 04e1 56be 38f2 213d a6a6 713e
000001d0: a695 6a3e ee2a 493e 475a 6abe a22e 69be
000001e0: e2d5 43be f8b8 223d 5f5e a13e 268c 4cbe
000001f0: 588e 2c3e 9f3a 33be a13a 98be e4a5 89bd
00000200: f692 3a3e d94f 963e 621a 49be 408b 8c3d
00000210: 5bb4 8b3e 2294 563e 76cf 493e 761d 663e
00000220: dad1 4c3e 1848 a73d c86e 5dbe d2f6 87be
00000230: 3661 14be 28d4 16bd 087c 46be 80f0 ec3d
00000240: 5c6f c83d b6a5 92bd 8ce9 f83d 384e d13d
00000250: fab3 453e 9a12 5a3e bc52 dbbd 5930 9e3e
00000260: 40be 15bd 4000 32bc 83d2 98be fd69 50be
00000270: d72c 3dbe 0a81 0abe 6639 663e 7aa2 d3bd
00000280: 87fb 71be 642d f93d 545a cf3d bebb 513e
00000290: ff90 27be b86a 8c3d 90c5 ebbd d081 91bd
000002a0: 2807 81be 5095 13be d257 c6bd c679 0a3e
000002b0: c8a1 6c3d f4f9 9f3d 119a a13e f3cc 9d3e
000002c0: cedb 5c3e e0fb 243c 9403 60be fa10 7d3e
000002d0: 498c 293e 7edc 543d f1d0 993d 8b77 3dbd
000002e0: e329 1abf b989 e83e 0801 dcbd 75bf b9be
000002f0: 9cd7 b73d f01f 65be 2936 473e 56b1 373e
00000300: 102c 0bbe 1f55 923c 3254 e93e dec7 63be
00000310: 0e11 183e 9a08 503e e960 9e3e 52a6 62be
00000320: bcd9 9c3d 6c70 6fbe c13a 8a3e b438 fbbd
00000330: 5e0d 433e 803f 1a3c 10c2 c9bc 2051 25bc
00000340: 4830 5c3d 6ca5 183e 30bc 4f3d 6890 c53d
00000350: 0ba4 91be bae9 6b3e 8b29 8d3e a9d5 853e
00000360: 7e5f 6f3e 3bad 69be fe13 f0bd 49c2 8e3e
00000370: 5ea3 76be 0de3 923e 54ae 7ebe 8019 64be
00000380: a04e 1e3e bda8 68be 9e5f 94bd 0a93 6b3e
00000390: fb3e 803e 4120 993e 946a 83bd c0b0 7bbe
000003a0: bf6a 9f3e 8cf6 89bd d33a 05be 58e0 9d3d
000003b0: 0c74 62be b2d6 543e 66f2 4a3e b178 80be
000003c0: befc 84be 00ec e2bc f002 083e 200e 16bc
000003d0: 5133 24be 80e7 ec3b e12e 98be 84dc 64be
000003e0: ca8f 57be 2f56 853e 31b9 8e3e dafa dbbd
000003f0: 805f 683c 546a 103e 1832 1b3d fe26 22be

tgcn1.bias f4 [1, 912, 15]
0.22281237 0.10396991 -0.17651027 0.20757537 -0.22499923 0.16567132 -0.06732874 0.095958635
-0.037888605 0.06332885 -0.09556702 0.13083121 0.14586867 -0.28924677 0.27958462 -0.25512186
-0.14121726 0.12423631 0.2926405 0.103188 -0.17641714 0.055807743 -0.18984593 0.1490906
0.016128864 0.030729447 -0.24254069 0.16912767 0.30236825 -0.21957219 0.10754376 -0.13938028
-0.08503614 0.28019163 -0.29675302 -0.059685275 0.113119595 0.14308295 -0.12368755 -0.17241727
0.06320762 -0.28800067 0.040790424 -0.2000067 -0.058020584 0.28478926 -0.2625603 -0.1565378
-0.24330102 0.1877742 0.26271808 -0.20441717 0.1996971 0.20245026 -0.27170604 0.1083022
0.14275926 -0.0571316 0.21325605 -0.019895248 -0.04093888 0.17824067 -0.28923422 -0.31080773
0.058017842 0.033716593 0.02266454 -0.19357412 0.2523626 -0.19572541 -0.13987082 -0.26699498
-0.31442568 0.0763062 -0.12762932 0.19306487 0.3061484 0.10236292 0.27534693 -0.22341391
0.1668828 0.17188528 -0.12637688 -0.022483561 -0.18997677 0.030122185 -0.30219358 -0.18908308
-0.27259496 -0.040124625 0.032079805 -0.25396982 -0.11646635 0.18997794 0.0149746435 0.0552217
-0.13963385 -0.09326335 -0.28039458 0.29500163 0.035826236 0.14507905 0.1835966 0.27798375
-0.21835823 0.0880357 -0.27405164 0.11738188 -0.16242649 0.12182711 -0.23294377 0.16763951
0.22610423 0.17391132 -0.26562852 0.19771156 -0.20091431 -0.29658562 0.20592408 0.053520776
-0.11027594 -0.276464 0.08117853 -0.13639438 -0.25089425 -0.03967656 -0.26944113 0.15552497
-0.20835514 -0.10780261 -0.31287715 -0.0443803 -0.098029256 0.17544924 -0.07175248 0.21213865
0.276659 0.06428575 -0.10818653 -0.26113528 -0.22143358 -0.1063247 -0.1984377 0.16673602
-0.10209194 -0.011658456 0.012937763 -0.2734833 0.2640686 -0.120961465 -0.255909 -0.0050521297
-0.27799127 0.03947475 -0.20445274 -0.0694189 -0.09266322 0.22600627 0.24491881 0.31510755
0.03443174 0.20212898 -0.25973663 -0.21212828 0.17048568 0.068107955 0.08791841 0.18124476
0.20143029 0.15039502 -0.11725838 -0.09967509 0.0678063 0.2606802 -0.023657897 -0.09424613
0.17375353 0.20753376 -0.005870074 -0.09367642 -0.31504515 0.019259926 0.09688281 -0.23216194
-0.23477998 -0.31614634 0.24746527 0.29695904 0.3128128 0.28294063 -0.033338577 0.14037286
0.18714055 -0.084473774 -0.18219152 0.26355457 -0.033137977 0.11715952 -0.14787968 -0.16312695
-0.058595568 0.010371889 0.18785368 0.20568436 -0.039732993 0.3112515 -0.16834873 0.021837564
-0.19819233 0.05193881 0.2890044 -0.26157925 0.07477629 -0.29062274 -0.07072607 -0.14862205
0.00054251147 -0.21945491 0.08028157 -0.29838714 0.06986263 -0.12194149 -0.18924563 0.26862374
0.033791907 -0.20932674 -0.1782413 -0.14109205 -0.18711844 0.039452773 0.0042869435 0.2765529
0.009707964 -0.16868314 0.27231047 0.0791452 -0.068233 0.22167447 0.25873375 -0.26621965
-0.26092163 -0.2080872 -0.2723076 -0.09528774 0.11579533 -0.28855875 -0.30917388 -0.27273887
-0.16502641 0.19764274 0.28052652 0.31308773 0.0040821903 -0.267829 0.3076532 -0.21269417
00000000: ed28 643e 2dee d43d 1cbf 34be a38e 543e
00000010: 3366 66be bea5 293e a7e3 89bd f685 c43d
00000020: 1531 1bbd 8eb2 813d a4b8 c3bd 9ef8 053e
00000030: 995e 153e 2718 94be b725 8f3e 559f 82be
00000040: 429b 10be 9b6f fe3d fad4 953e 3b54 d33d
00000050: b2a6 34be a996 643d f966 42be 35ab 183e
00000060: ae20 843c 52bc fb3c 965c 78be ce2f 2d3e
00000070: 03d0 9a3e 88d7 60be e73f dc3d b4b9 0ebe
00000080: 6e27 aebd 4775 8f3e 03f0 97be 8c78 74bd
00000090: 3fab e73d 5684 123e e64f fdbd 278e 30be
000000a0: ff72 813d d374 93be dc13 273d 8ece 4cbe
000000b0: fea6 6dbd e6cf 913e 4e6e 86be 724b 20be
000000c0: e723 79be e147 403e fc82 863e bc52 51be
000000d0: 667d 4c3e 1f4f 4f3e 0e1d 8bbe 8bcd dd3d
000000e0: 7c2f 123e d302 6abd cb5f 5a3e 5cfb a2bc
000000f0: 87af 27bd b984 363e 8216 94be 3122 9fbe
00000100: 1ea4 6d3d 691a 0a3d fcaa b93c 4b38 46be
00000110: ac35 813e 3e6c 48be 4c3a 0fbe 91b3 88be
00000120: 67fc a0be 6d46 9c3d 43b1 02be ccb2 453e
00000130: 7cbf 9c3e a7a3 d13d 46fa 8c3e 9ec6 64be
00000140: 53e3 2a3e b202 303e f168 01be 722f b8bc
00000150: 4589 42be cdc2 f63c 1eb9 9abe ff9e 41be
00000160: 9191 8bbe b859 24bd 1d66 033d 5508 82be
00000170: e985 eebd 9489 423e 3558 753c 2630 623d
00000180: 2dfc 0ebe db00 bfbd e18f 8fbe 740a 973e
00000190: 88be 123d 9a8f 143e bf00 3c3e e353 8e3e
000001a0: 4d99 5fbe 104c b43d 7f50 8cbe e965 f03d
000001b0: 2153 26be 7e80 f93d d088 6ebe b1a9 2b3e
000001c0: de87 673e cf15 323e 7600 88be e674 4a3e
000001d0: 7bbc 4dbe 12da 97be c3dd 523e 9a38 5b3d
000001e0: 5ad8 e1bd b08c 8dbe ee40 a63d f8aa 0bbe
000001f0: 3675 80be e383 22bd 30f4 89be f041 1f3e
00000200: 0d5b 55be 9dc7 dcbd 6f31 a0be 1ec8 35bd
00000210: 90c3 c8bd f7a8 333e f7f2 92bd e03a 593e
00000220: 40a6 8d3e 3fa8 833d e690 ddbd 86b3 85be
00000230: 7cbf 62be c4c0 d9bd 4133 4bbe d9bc 2a3e
00000240: 9415 d1bd 1c03 3fbc e9f8 533c 0106 8cbe
00000250: 0034 873e a5ba f7bd 8106 83be 568c a5bb
00000260: df54 8ebe 47b0 213d 0f5c 51be 7f2b 8ebd
00000270: 37c6 bdbd 306e 673e ffcb 7a3e c755 a13e
00000280: 4c08 0d3d e6fa 4e3e 33fc 84be 2838 59be
00000290: cc93 2e3e 2f7c 8b3d 910e b43d 3a98 393e
000002a0: be43 4e3e 2701 1a3e 2925 f0bd 7422 ccbd
000002b0: 08de 8a3d e077 853e 35ce c1bc 1d04 c1bd
000002c0: 72ec 313e bb83 543e c059 c0bb 6cd9 bfbd
000002d0: 994d a1be fec6 9d3c 7f6a c63d dcbb 6dbe
000002e0: 2a6a 70be efdd a1be 8967 7d3e 040b 983e
000002f0: 0029 a03e 98dd 903e 088e 08bd e7bd 0f3e
00000300: c6a1 3f3e 9600 adbd 6a90 3abe a0f0 863e
00000310: b0bb 07bd 55f1 ef3d c56d 17be c00a 27be
00000320: e801 70bd dbee 293c b75c 403e ec9e 523e
00000330: 10bf 22bd 5b5c 9f3e 9c63 2cbe b1e4 b23c
00000340: eef2 4abe cabd 543d 62f8 933e b7ed 85be
00000350: 5024 993d 81cc 94be d4d8 90bd 6130 18be
00000360: 5437 0e3a cab8 60be aa6a a43d 33c6 98be
00000370: 2314 8f3d 76bc f9bd 9bc9 41be 0d89 893e
00000380: 6269 0a3d c059 56be e384 36be 6f7a 10be
00000390: fa9b 3fbe 3b99 213d 7d79 8c3b 5798 8d3e
000003a0: 270e 1f3c 46bb 2cbe 476c 8b3e e116 a23d
000003b0: bebd 8bbd a2fe 623e c078 843e f14d 88be
000003c0: 8597 85be d014 55be e76b 8bbe 3826 c3bd
000003d0: 1a26 ed3d f9bd 93be 0a4c 9ebe 6ea4 8bbe
000003e0: affc 28be dc62 4a3e 2ca1 8f3e 094d a03e
000003f0: e5c3 853b e220 89be b884 9d3e 80cc 59be

fc1.weight f4 [10, 13680]
-0.0077667013 -0.003393186 -0.010311582 0.0010362384 0.0024066055 -0.012709271 0.017101523 0.012614312
-0.0077416054 -0.0012490461 -0.0022776416 -0.0031023547 0.011277796 -0.005156082 -0.007339798 0.0028236962
0.0009216553 9.6924196e-05 -0.0066186655 0.014292147 -0.010626896 0.013088622 0.023064977 -0.009199812
-0.005434487 0.0038993575 -0.007976589 0.021774968 -0.0075511886 0.0031718328 -0.008810373 0.0032653187
-0.004548221 -0.01553564 -0.0185592 -0.009937584 -0.018648192 -0.030302528 -0.0009879292 -0.0011229701
-0.0041120066 -0.0038851365 -0.012784871 -0.006800069 -0.00016171996 -0.021285333 -0.001976695 -0.00847704
0.0077157677 -0.029144347 -0.014566836 0.0011436883 -0.007981758 -0.013306981 -0.0028471048 -0.0010181438
-0.006223511 0.013145074 -0.0031672055 -0.006796704 -0.010636001 -0.005485821 -0.00335187 0.0053424
0.000712893 0.0035372127 0.0031860676 0.011315186 -0.0074617253 -0.0020977103 0.003747753 -0.0049928054
0.023348164 -0.007051985 0.002151449 -0.0024164934 -0.013396003 -0.0022778467 -0.0018173127 -0.004359669
-0.0038675605 0.0044424026 0.0074085095 8.128398e-05 -0.00399056 0.0017363369 -0.0057374747 0.027354259
0.003278005 -0.010713898 -0.009066821 -0.0041489988 -0.015488642 -0.004375782 0.0099716205 -0.010114637
0.0019646103 -0.0091074165 -0.0062046982 -0.0026841015 -0.011563822 -0.011137392 0.00305882 0.002240786
-0.01420435 -0.0136084305 0.0012159181 -0.016208388 0.00521822 -0.0029752548 -0.0051688594 0.0012404482
-0.007677191 -0.00076615834 -0.0015716885 0.0009778225 -0.0038043787 0.0057615633 0.0022168371 -0.015524493
-0.017827693 -0.0057833917 -0.019206459 -0.008843393 -0.013486889 -0.015796714 -0.0017470215 -0.027798908
-0.0093663 -0.0012717819 0.0014880532 -0.0054166745 -0.01310339 0.008182736 -0.0012409319 -0.008753937
-0.010908248 -0.022756184 0.00016247855 0.001501299 0.0008336357 -0.016316406 -0.033124786 0.0004687186
0.0031960167 -0.00793755 -0.012474055 -0.013580504 0.0056558447 -0.014226549 -0.010076906 0.006680171
-0.0035197313 -0.0069244374 -0.015944371 -0.005081821 -0.004835764 -0.0065698233 0.0008162051 -0.00849248
-0.009970338 -0.0070680752 -0.003711598 0.005492077 -0.0022712108 -0.007630018 0.0055142837 -0.013685335
0.003992115 0.009902294 -0.0059508216 0.0021415525 -0.0010406331 -0.005741989 -0.005544542 0.004681979
-0.0052695926 -0.0070616147 0.006233682 -0.004624665 -0.0003047511 -0.0076535693 -0.0030722355 -0.0059250747
0.0014780266 0.0022531645 -0.0037284263 0.002399835 0.004470522 0.00052361365 -0.006652473 -0.006348847
-0.005380752 0.0061826427 0.0027523804 0.005883793 -0.0018335944 0.0070396424 0.0057225497 -0.008041383
-0.001851873 -0.0050102673 0.008579048 -0.004885624 -0.003871799 -0.0027843104 0.008161691 0.006885639
-0.005596917 -0.008156862 0.0070428695 0.006345705 0.0022605457 0.0016432777 -0.0014363341 0.0067005837
0.0001376924 -0.0031492356 -0.0024923722 0.0027958285 -0.00024603758 -0.006342948 -0.0030069356 0.0072026746
0.0030177438 0.0067845583 0.004657818 -0.00042984076 0.0024138512 -0.007975079 -0.00798698 0.0022364752
0.0023762824 0.0015659882 0.0030740744 0.008160901 0.005840176 0.005247152 0.0011743549 -0.005697689
-0.0116114775 -0.009534291 -0.0058451467 -0.0016220101 0.009841298 -0.0027066898 -0.0019469523 -0.009279243
-0.008309178 0.00035803104 -0.007325728 -0.019209532 -0.0006910489 0.002591136 -0.021944443 -0.028571265
00000000: d07f febb 3760 5ebb e9f1 28bc 64d2 873a
00000010: 24b8 1d3b 8c3a 50bc 7e18 8c3c 42ac 4e3c
00000020: 4bad fdbb 08b7 a3ba 7c44 15bb e050 4bbb
00000030: 81c6 383c 5af4 a8bb b082 f0bb c30d 393b
00000040: 3d9b 713a c843 cb38 64e1 d8bb 9c29 6a3c
00000050: 6f1c 2ebc a971 563c c3f2 bc3c cfba 16bc
00000060: c813 b2bb 5d8c 7f3b 3db0 02bc 6b61 b23c
00000070: f66f f7bb 86de 4f3b 6259 10bc f5fe 553b
00000080: 3e09 95bb 3289 7ebc 7709 98bc 40d1 22bc
00000090: 18c4 98bc 023d f8bc 677d 81ba a030 93ba
000000a0: 03be 86bb c69d 7ebb a377 51bc 1dd3 debb
000000b0: 5f93 29b9 945e aebc 708b 01bb 48e3 0abc
000000c0: 8dd4 fc3b 20c0 eebc bda9 6ebc d0e7 953a
000000d0: ebc5 02bc 8605 5abc 7e96 3abb 3d73 85ba
000000e0: 98ee cbbb 705e 573c e490 4fbb e3b6 debb
000000f0: 9f42 2ebc 67c2 b3bb 0cab 5bbb 4d0f af3b
00000100: 70e1 3a3a 95d0 673b 58cd 503b 5463 393c
00000110: 7d81 f4bb bd79 09bb dd9c 753b b09a a3bb
00000120: a644 bf3c 5614 e7bb 53ff 0c3b 085e 1ebb
00000130: e97a 5bbc ed47 15bb e532 eeba 8edb 8ebb
00000140: e676 7dbb 9391 913b 15c3 f23b 0177 aa38
00000150: 3ec3 82bb cc95 e33a 6d01 bcbb 0a16 e03c
00000160: ccd3 563b 5889 2fbc 018d 14bc 53f4 87bb
00000170: 13c4 7dbc b862 8fbb 0260 233c ddb7 25bc
00000180: b1c0 003b 4637 15bc c850 cbbb c0e7 2fbb
00000190: 2f76 3dbc 9c79 36bc 7c76 483b 27da 123b
000001a0: 5db9 68bc e5f5 5ebc 715f 9f3a 74c7 84bc
000001b0: 9afd aa3b 7efc 42bb 895f a9bb 8996 a23a
000001c0: f290 fbbb 04d8 48ba 1d01 ceba 472a 803a
000001d0: e252 79bb 7fcb bc3b 5b48 113b 715a 7ebc
000001e0: 620b 92bc 9b82 bdbb dd56 9dbc e1e3 10bc
000001f0: 1df8 5cbc 1c68 81bc 50fc e4ba 89ba e3bc
00000200: 1c75 19bc ebb1 a6ba c80a c33a 5c7e b1bb
00000210: 9aaf 56bc e210 063c c4a6 a2ba ac6c 0fbc
00000220: 82b8 32bc 2d6b babc 015f 2a39 3cc7 c43a
00000230: 5888 5a3a fca9 85bc dbad 07bd 58be f539
00000240: 4374 513b 7f0c 02bc fb5f 4cbc c380 5ebc
00000250: aa54 b93b 7916 69bc 9b19 25bc 56e5 da3b
00000260: 4bab 66bb 64e6 e2bb c59d 82bc 6785 a6bb
00000270: 5475 9ebb ac47 d7bb 99f6 553a 0b24 0bbc
00000280: a15a 23bc 509b e7bb 483e 73bb e2f6 b33b
00000290: 98d8 14bb 3b05 fabb 2ab1 b43b 7538 60bc
000002a0: 4ad0 823b 3b3d 223c 1cff c2bb 4a59 0c3b
000002b0: da65 88ba 4b27 bcbb fdae b5bb 496b 993b
000002c0: 8cac acbb 1e65 e7bb ea43 cc3b 808a 97bb
000002d0: 00c7 9fb9 cbca fabb 8f57 49bb 2127 c2bb
000002e0: 58ba c13a d4a9 133b 9d58 74bb 8d46 1d3b
000002f0: 757d 923b 1e43 093a fdfc d9bb fd09 d0bb
00000300: 0551 b0bb c497 ca3b 4861 343b d5cc c03b
00000310: 3855 f0ba cdac e63b 3a84 bb3b 01c0 03bc
00000320: 8cba f2ba 2b2d a4bb 238f 0c3c 9617 a0bb
00000330: 02be 7dbb fa78 36bb 9db8 053c eda0 e13b
00000340: 5866 b7bb 5ca4 05bc dfc7 e63b a2ef cf3b
00000350: aa25 143b 4063 d73a 6043 bcba 9290 db3b
00000360: 8661 1039 6863 4ebb 1157 23bb 383a 373b
00000370: 9bfe 80b9 81d8 cfbb 0210 45bb 6a04 ec3b
00000380: 57c5 453b 0051 de3b 9ca0 983b 405c e1b9
00000390: b431 1e3b e8a9 02bc d2db 02bc d491 123b
000003a0: 67bb 1b3b d841 cd3a 6976 493b 4db5 053c
000003b0: f25e bf3b 4df0 ab3b d0ec 993a aeb3 babb
000003c0: 113e 3ebc b735 1cbc a588 bfbb a199 d4ba
000003d0: 653d 213c b862 31bb e130 ffba f707 18bc
000003e0: 3823 08bc 1db6 bb39 a90c f0bb 4f5d 9dbc
000003f0: 8227 35ba 0cd0 293b d5c4 b3bc 490e eabc

fc1.bias f4 [10]
0.008050507 0.027585851 0.012829615 0.0027217246 0.006017501 0.010400514 -0.016433777 0.025365576
-0.04993352 -0.014442522
00000000: 46e6 033c b9fb e13c 4e33 523c f65e 323b
00000010: 752e c53b eb66 2a3c 21a0 86bc 78cb cf3c
00000020: 1787 4cbd 54a0 6cbc
