examples/saved_models/mnist_tgcn.pt (torch_old, 631127 bytes, 4 tensors)

tgcn1.weight f4 [10, 12, 1, 15]
-0.124072894 -0.26047277 -0.29204476 0.093069576 -0.51823235 0.00530598 0.19611023 0.41706854
-0.051353987 -0.049407158 0.16108857 -0.35291332 0.55876255 -0.12310992 -0.15352851 -0.028469145
0.045835316 -0.0012632608 0.27643576 0.09840697 -0.11776519 -0.19098935 -0.053004712 -0.1364019
-0.10133472 0.015141487 0.18851212 0.17188138 -0.30912873 0.19603607 0.08834261 0.29995957
0.20872924 -0.28812703 -0.30067202 -0.15252681 0.2776833 -0.052673727 0.13533264 -0.14695466
0.31028834 -0.13379547 0.23714706 0.0037446618 -0.1665943 0.16254577 -0.16786006 0.09300408
-0.09131305 -0.03466943 -0.3040176 -0.15077162 0.17159593 -0.07686779 0.3149785 0.25348452
-0.014806926 -0.21107668 0.19257078 0.09814352 -0.20441587 0.20540401 0.19198242 0.2804608
-0.17726451 -0.052052975 -0.006125927 0.04618743 -0.23999104 -0.22440231 0.17202935 -0.07415286
0.15446886 0.01802811 0.10383174 0.0695349 0.11498022 0.1567575 -0.29286236 0.1591737
-0.22234708 -0.23859668 0.0192312 -0.053887486 0.18572816 -0.18313877 -0.28112078 0.23014072
-0.046890825 0.17786458 0.10166234 -0.23713139 0.06352961 0.07595682 -0.21173304 -0.15004131
0.107825965 0.056643516 -0.13451463 -0.095727175 0.28962752 -0.058508873 0.17828655 0.13692763
-0.20441188 -0.26892942 0.30354348 0.016512394 0.21676084 0.06553233 0.10170603 0.23620906
0.2998518 -0.20984274 0.03953764 0.23598728 0.22908649 0.19645283 -0.22886 -0.22771695
-0.19124559 0.03972718 0.31517312 -0.19975337 0.16851175 -0.17502831 -0.2973223 -0.06721094
0.18220124 0.29357794 -0.1963897 0.06862497 0.27286038 0.20954946 0.19708046 0.22472176
0.20001927 0.08168048 -0.21624291 -0.26555496 -0.14490208 -0.03682342 -0.19383252 0.11569309
0.09786865 -0.07160513 0.121539205 0.10219997 0.19306937 0.21296158 -0.1070914 0.3089626
-0.03655839 -0.010864317 -0.29848108 -0.20352931 -0.18474136 -0.13525787 0.22482833 -0.10333724
-0.23631106 0.12166861 0.101246506 0.20481774 -0.16363905 0.068562925 -0.115122914 -0.07104838
-0.25200772 -0.14412427 -0.09684719 0.13523015 0.057771474 0.07811347 0.31562856 0.30820426
0.21568224 0.010069817 -0.21876365 0.24713507 0.16406883 0.07640486 0.015361366 -0.05438243
-0.58352256 0.4431389 -0.22486587 -0.19089903 0.09670161 -0.20608214 0.31996536 0.19724959
-0.20636557 0.017843412 0.40459457 -0.22244212 0.14850256 0.20315781 0.30933312 -0.22133759
0.07658717 -0.2338273 0.2699795 -0.12266675 0.19048068 0.009414554 -0.024628669 -0.0100901425
0.053756982 0.14906853 0.05071658 0.09646684 -0.28445467 0.23038378 0.27570757 0.26139572
0.23376271 -0.22819988 -0.11722563 0.27882603 -0.24085757 0.2868885 -0.24871188 -0.22275352
0.1545968 -0.22720619 -0.072448 0.2300531 0.2504805 0.2990742 -0.064168125 -0.24579144
0.31136128 -0.06736478 -0.13010721 0.07708806 -0.22114581 0.20785025 0.1981903 -0.2509208
-0.25974077 -0.027700424 0.1328237 -0.009158641 -0.160352 0.0072297454 -0.29723266 -0.22349745
-0.21050945 0.26042315 0.27875665 -0.107412055 0.014182925 0.14103061 0.03788957 -0.15835187
00000000: ee19 febd b05c 85be e486 95be 439b be3d
00000010: e0aa 04bf c9dd ad3b 1fd1 483e 028a d53e
00000020: 8f58 52bd 295f 4abd 67f4 243e 0eb1 b4be
00000030: 100b 0f3f 0e21 fcbd 9436 1dbe 2038 e9bc
00000040: d0bd 3b3d 0094 a5ba fd88 8d3e 9889 c93d
00000050: e02e f1bd b692 43be 781b 59bd f1ac 0bbe
00000060: 9488 cfbd 0014 783c 5209 413e ac01 303e
00000070: 1f46 9ebe aebd 483e f8ec b43d 4d94 993e
00000080: 1ebd 553e 6385 93be aff1 99be fd2f 1cbe
00000090: 812c 8e3e 68c0 57bd a494 0a3e 487b 16be
000000a0: 1dde 9e3e ae01 09be aed6 723e 0069 753b
000000b0: b297 2abe 6672 263e 82e3 2bbe ec78 be3d
000000c0: 5602 bbbd 8801 0ebd 32a8 9bbe e063 1abe
000000d0: d8b6 2f3e dc6c 9dbd dd44 a13e b9c8 813e
000000e0: c098 72bc 7c24 58be 4631 453e 78ff c83d
000000f0: 6552 51be 6e55 523e 0a97 443e 8f98 8f3e
00000100: d484 35be 8035 55bd 00bc c8bb 082f 3d3d
00000110: 36c0 75be b8c9 65be 7628 303e 74dd 97bd
00000120: 162d 1e3e b0af 933c bca5 d43d 5068 8e3d
00000130: c07a eb3d 0a85 203e 0ef2 95be 6efe 223e
00000140: f4ae 63be b052 74be c08a 9d3c 20b9 5cbd
00000150: 862f 3e3e bb88 3bbe 10ef 8fbe 02aa 6b3e
00000160: 9810 40bd 2222 363e 5834 d03d 92d2 72be
00000170: d01b 823d 408f 9b3d 8cd0 58be 6ea4 19be
00000180: dcd3 dc3d 0803 683d 34be 09be 9c0c c4bd
00000190: 0f4a 943e 00a7 6fbd c090 363e c236 0c3e
000001a0: 5951 51be 1eb1 89be 0d6a 9b3e 0045 873c
000001b0: 8ef6 5d3e d035 863d 404b d03d cae0 713e
000001c0: 2d86 993e 04e1 56be 38f2 213d a6a6 713e
000001d0: a695 6a3e ee2a 493e 475a 6abe a22e 69be
000001e0: e2d5 43be f8b8 223d 5f5e a13e 268c 4cbe
000001f0: 588e 2c3e 9f3a 33be a13a 98be e4a5 89bd
00000200: f692 3a3e d94f 963e 621a 49be 408b 8c3d
00000210: 5bb4 8b3e 2294 563e 76cf 493e 761d 663e
00000220: dad1 4c3e 1848 a73d c86e 5dbe d2f6 87be
00000230: 3661 14be 28d4 16bd 087c 46be 80f0 ec3d
00000240: 5c6f c83d b6a5 92bd 8ce9 f83d 384e d13d
00000250: fab3 453e 9a12 5a3e bc52 dbbd 5930 9e3e
00000260: 40be 15bd 4000 32bc 83d2 98be fd69 50be
00000270: d72c 3dbe 0a81 0abe 6639 663e 7aa2 d3bd
00000280: 87fb 71be 642d f93d 545a cf3d bebb 513e
00000290: ff90 27be b86a 8c3d 90c5 ebbd d081 91bd
000002a0: 2807 81be 5095 13be d257 c6bd c679 0a3e
000002b0: c8a1 6c3d f4f9 9f3d 119a a13e f3cc 9d3e
000002c0: cedb 5c3e e0fb 243c 9403 60be fa10 7d3e
000002d0: a901 283e 277a 9c3d 3dae 7b3c 1cc0 5ebd
000002e0: bc61 15bf 1ae3 e23e 3d43 66be 097b 43be
000002f0: 7e0b c63d 3207 53be 80d2 a33e ccfb 493e
00000300: 7f51 53be 592c 923c 0527 cf3e dec7 63be
00000310: 0e11 183e 9a08 503e e960 9e3e 52a6 62be
00000320: bcd9 9c3d 6c70 6fbe c13a 8a3e b438 fbbd
00000330: 5e0d 433e 803f 1a3c 10c2 c9bc 2051 25bc
00000340: 4830 5c3d 6ca5 183e 30bc 4f3d 6890 c53d
00000350: 0ba4 91be bae9 6b3e 8b29 8d3e a9d5 853e
00000360: 7e5f 6f3e 3bad 69be fe13 f0bd 49c2 8e3e
00000370: 5ea3 76be 0de3 923e 54ae 7ebe 8019 64be
00000380: a04e 1e3e bda8 68be 9e5f 94bd 0a93 6b3e
00000390: fb3e 803e 4120 993e 946a 83bd c0b0 7bbe
000003a0: bf6a 9f3e 8cf6 89bd d33a 05be 58e0 9d3d
000003b0: 0c74 62be b2d6 543e 66f2 4a3e b178 80be
000003c0: befc 84be 00ec e2bc f002 083e 200e 16bc
000003d0: 5133 24be 80e7 ec3b e12e 98be 84dc 64be
000003e0: ca8f 57be 2f56 853e 31b9 8e3e dafa dbbd
000003f0: 805f 683c 546a 103e 1832 1b3d fe26 22be

tgcn1.bias f4 [1, 944, 15]
0.22240183 0.105422296 -0.17645538 0.20719582 -0.22465657 0.1640132 -0.067624144 0.09654299
-0.03789474 0.06260984 -0.09537886 0.13053766 0.14714576 -0.28924677 0.27869073 -0.2551791
-0.14137009 0.12411355 0.29154673 0.103013866 -0.17648868 0.055958334 -0.18967168 0.14858903
0.016184306 0.030785073 -0.24262865 0.1684997 0.30042842 -0.21935126 0.10727974 -0.13957548
-0.08500057 0.2797651 -0.29572764 -0.05995628 0.11392011 0.1413279 -0.12369254 -0.17251997
0.06375541 -0.28799784 0.0425448 -0.2000067 -0.057954524 0.28379127 -0.26268917 -0.15650491
-0.24331515 0.18948339 0.26078507 -0.2046518 0.19969183 0.20233959 -0.2717344 0.10698816
0.14325418 -0.05638064 0.21267855 -0.01971916 -0.041172996 0.17703342 -0.28949872 -0.310837
0.057942215 0.034607466 0.022422902 -0.19285505 0.25186557 -0.19547518 -0.13982502 -0.2672037
-0.31504127 0.07648551 -0.12752861 0.19289504 0.3061777 0.102214 0.27584833 -0.22000735
0.16652612 0.17197931 -0.12744303 -0.022440087 -0.189752 0.03035265 -0.30210513 -0.18847127
-0.27259496 -0.040117573 0.032769054 -0.2542467 -0.11618975 0.1902477 0.015474472 0.054927543
-0.1396514 -0.093008295 -0.2803554 0.2956257 0.035775676 0.14563733 0.18521431 0.27807748
-0.21812683 0.088476844 -0.27409312 0.11798838 -0.16227129 0.123596095 -0.23282748 0.16771473
0.22679934 0.17328948 -0.26553383 0.19838129 -0.20065504 -0.29576975 0.20581636 0.053641178
-0.11019778 -0.27660686 0.08087207 -0.13654518 -0.25124717 -0.039867215 -0.2696772 0.15403579
-0.20839363 -0.10757815 -0.3128784 -0.04430871 -0.09750794 0.17449236 -0.07193442 0.21262549
0.27707428 0.064138986 -0.10861693 -0.26060617 -0.22142184 -0.10660888 -0.1970984 0.16725697
-0.10205959 -0.01188948 0.012896604 -0.27350965 0.26363003 -0.12109791 -0.2562118 -0.005185947
-0.2783562 0.03925378 -0.20475902 -0.06940345 -0.09318502 0.22554861 0.24391864 0.31374002
0.035299845 0.20136078 -0.2597251 -0.21212828 0.1696181 0.06930908 0.08749677 0.18031472
0.20021705 0.14777575 -0.11730952 -0.10056792 0.063908085 0.26007497 -0.024007013 -0.094310224
0.1745106 0.20914257 -0.005870074 -0.09365546 -0.31504515 0.019411847 0.09742956 -0.23216194
-0.23477998 -0.31614634 0.24752477 0.29698277 0.3132744 0.28343442 -0.033338577 0.14119227
0.18743923 -0.084473774 -0.18219152 0.26448232 -0.033137977 0.116956614 -0.14787968 -0.16312695
-0.058595568 0.010149247 0.18776219 0.20545046 -0.039732993 0.3115632 -0.16834873 0.021034876
-0.19819233 0.051977716 0.2886561 -0.26157925 0.074505374 -0.29062274 -0.07072607 -0.14862205
0.00032673826 -0.21945491 0.08084798 -0.29838714 0.06878933 -0.12194149 -0.18924563 0.26849246
0.034025095 -0.20932674 -0.1782413 -0.14109205 -0.18711844 0.03975287 0.004679386 0.2765626
0.009099144 -0.16868314 0.2726587 0.08004002 -0.068233 0.2223864 0.25998637 -0.26621965
-0.26080945 -0.20802222 -0.27194503 -0.094876304 0.11611679 -0.2884728 -0.309069 -0.2722987
-0.16499616 0.19920598 0.28092667 0.31494588 0.0032174918 -0.267829 0.30843842 -0.21256648
00000000: 4ebd 633e a5e7 d73d b8b0 34be 242b 543e
00000010: 5f0c 66be 14f3 273e 877e 8abd 55b8 c53d
00000020: 8437 1bbd 9639 803d fe55 c3bd aaab 053e
00000030: 61ad 163e 2718 94be 8db0 8e3e d6a6 82be
00000040: 52c3 10be 3f2f fe3d 9d45 953e eff8 d23d
00000050: 73b9 34be 9134 653d 4b39 42be b927 183e
00000060: f394 843c fa30 fc3c a573 78be 2f8b 2c3e
00000070: c1d1 993e 9e9d 60be 7bb5 db3d e0ec 0ebe
00000080: c714 aebd 5f3d 8f3e 9d69 97be b794 75bd
00000090: f24e e93d 43b8 103e 8452 fdbd 13a9 30be
000000a0: 3292 823d 7474 93be 7543 2e3d 8ece 4cbe
000000b0: b961 6dbd 174d 913e 327f 86be d342 20be
000000c0: 9b27 79be ef07 423e 9f85 853e 3e90 51be
000000d0: 047c 4c3e 1c32 4f3e c520 8bbe 9c1c db3d
000000e0: 39b1 123e 63ef 66bd 68c8 593e 138a a1bc
000000f0: 04a5 28bd 4048 353e 2d39 94be 0726 9fbe
00000100: d154 6d3d 8fc0 0d3d 3cb0 b73c cb7b 45be
00000110: 86f4 803e a52a 48be 4a2e 0fbe ecce 88be
00000120: 174d a1be 6fa4 9c3d dc96 02be 4786 453e
00000130: 53c3 9c3e 9355 d13d fe3b 8d3e 9b49 61be
00000140: d385 2a3e 581b 303e 6d80 02be 46d4 b7bc
00000150: 594e 42be 1fa6 f83c 86ad 9abe 9dfe 40be
00000160: 9191 8bbe 5352 24bd d838 063d a02c 82be
00000170: e4f4 edbd 4bd0 423e a488 7d3c b4fb 603d
00000180: c700 0fbe 227b bebd be8a 8fbe 405c 973e
00000190: 8489 123d f421 153e d2a8 3d3e 2c60 8e3e
000001a0: a45c 5fbe 5933 b53d ef55 8cbe e4a3 f13d
000001b0: 722a 26be f31f fd3d 546a 6ebe 69bd 2b3e
000001c0: 163e 683e cc72 313e 0df4 87be 7724 4b3e
000001d0: 8478 4dbe 226f 97be 86c1 523e dab6 5b3d
000001e0: 60af e1bd 6a9f 8dbe 41a0 a53d 80d2 0bbe
000001f0: 78a3 80be ce4b 23bd 2113 8abe 8fbb 1d3e
00000200: 2465 55be ef51 dcbd 9931 a0be 0d7d 35bd
00000210: 3eb2 c7bd 20ae 323e 5a52 93bd 7fba 593e
00000220: aedc 8d3e 4d5b 833d 8e72 debd 2c6e 85be
00000230: 68bc 62be c255 dabd 2ad4 49be 6945 2b3e
00000240: 9e04 d1bd 18cc 42bc 474c 533c 7509 8cbe
00000250: 84fa 863e 2e02 f8bd 312e 83be e0ee a9bb
00000260: b484 8ebe 92c8 203d 59ac 51be 6523 8ebd
00000270: cad7 bebd 37f6 663e cfc5 793e 88a2 a03e
00000280: 9296 103d 8531 4e3e b0fa 84be 2838 59be
00000290: 5eb0 2d3e ebf1 8d3d 8231 b33d 6ca4 383e
000002a0: b305 4d3e 8752 173e f93f f0bd 8ef6 cdbd
000002b0: 3ee2 823d 8c28 853e 5baa c4bc b825 c1bd
000002c0: e8b2 323e 7829 563e c059 c0bb 6fce bfbd
000002d0: 994d a1be 9805 9f3c 2689 c73d dcbb 6dbe
000002e0: 2a6a 70be efdd a1be 2277 7d3e 200e 983e
000002f0: 8165 a03e 511e 913e 088e 08bd b594 103e
00000300: 12f0 3f3e 9600 adbd 6a90 3abe 3a6a 873e
00000310: b0bb 07bd f386 ef3d c56d 17be c00a 27be
00000320: e801 70bd 0749 263c bb44 403e 9b61 523e
00000330: 10bf 22bd 3685 9f3e 9c63 2cbe 5551 ac3c
00000340: eef2 4abe 96e6 543d bbca 933e b7ed 85be
00000350: 4696 983d 81cc 94be d4d8 90bd 6130 18be
00000360: 114e ab39 cab8 60be a093 a53d 33c6 98be
00000370: 6ce1 8c3d 76bc f9bd 9bc9 41be d877 893e
00000380: e65d 0b3d c059 56be e384 36be 6f7a 10be
00000390: fa9b 3fbe e8d3 223d 8955 993b 9d99 8d3e
000003a0: 9314 153c 46bb 2cbe ec99 8b3e 06ec a33d
000003b0: bebd 8bbd 43b9 633e ef1c 853e f14d 88be
000003c0: d188 85be c703 55be 613c 8bbe 824e c2bd
000003d0: a4ce ed3d b5b2 93be 4b3e 9ebe bc6a 8bbe
000003e0: c1f4 28be a7fc 4b3e 9fd5 8f3e 9640 a13e
000003f0: 8edc 523b e220 89be a4eb 9d3e 07ab 59be

fc1.weight f4 [10, 14160]
-6.944375e-05 -0.011386564 -0.0265434 -0.0046715774 0.013225141 -0.00349755 0.016801335 0.004324306
-0.010684328 -0.0030181417 0.0050822287 -0.010277199 0.003913045 -0.0035481392 -0.026883615 0.0048867026
-0.0059568663 -0.01483118 0.002086304 0.02041836 -0.007778633 0.011834544 -0.0064113894 -0.0069584837
-0.0016831392 -0.0027667573 -0.017186776 0.007432515 0.0035500615 -0.022771124 -0.012418515 -0.004663364
-0.027473893 0.007012872 0.041275 -0.0041312734 0.0029742024 0.009319246 -0.011610758 0.009279853
0.0022926657 -0.025597764 0.01856298 -0.0074153068 -0.022137208 -0.021231066 -0.009345743 -0.031015191
-0.0010866032 -0.013960963 -0.0065276236 0.0025171072 -0.0035133043 -0.012364216 0.0025438152 0.0070973653
-0.020868108 0.012241447 -0.0005187708 -0.032694943 -0.020929549 0.0012546055 -0.02443666 -0.002713677
-0.029315125 -0.012093196 -0.011131274 0.038998757 -0.015234314 0.007711865 -0.0015350395 -0.02406782
-0.0046416502 0.0049638883 -0.022710033 -0.005353722 -0.008997137 -0.024678202 -0.002601108 0.010088773
-0.010858963 0.027745172 0.044848528 -0.0013894602 0.0062516285 0.009222039 -0.02084358 0.028967291
0.0069794375 -0.021634946 0.0021266036 -0.0048933295 -0.006579309 -0.0055609886 -0.0011839694 -0.0018294461
-0.0053946893 -0.00043277815 0.0027288673 0.0060227034 0.0028188278 0.007914816 -0.0048198616 0.009115805
0.002475053 -0.0036132818 0.002039425 -0.0029311976 0.0036946489 0.0021006756 -0.0010555042 0.0018035028
-0.007137589 0.008699992 0.0045503927 0.0059747356 0.0069981255 0.006756016 0.004333365 0.0013138739
-0.054848455 -0.0001337346 -0.049719784 -0.007199701 -0.046872135 -0.02573052 0.0045208326 -0.003082864
-0.01682976 -0.005368469 -0.016496675 -0.05197344 0.0059504816 -0.0076099904 -0.020850232 -0.0497085
-0.011903506 -0.03939173 -0.0041770665 -0.023978097 -0.021802241 -0.0043032006 -0.009039759 -0.0092875175
-0.0032954975 -0.012770054 -0.043003272 -0.0013112655 0.0007978684 -0.018074937 -0.032213565 -0.007016346
-0.036790308 -0.0019641172 -0.0029466941 -0.03251253 -0.0010895309 0.0369819 -0.024703676 0.0044562276
-0.006762452 -0.044674173 0.009743963 0.00324242 -0.017523088 -0.036524232 -0.008983067 -0.04594134
-0.009815392 0.008094979 -0.018556148 0.014427885 -0.03312671 -0.023354977 -0.0022693435 0.000667355
-0.053290024 0.001118743 -0.005148213 -0.028884433 0.0032221572 0.0034338885 0.0054940777 0.007807621
-0.00072092423 0.0036049783 0.0075704567 -0.003010654 0.0058378004 0.00441621 -0.006553958 -0.0045503327
-0.0018817849 0.001289797 -0.006326382 0.00047784174 -0.005271891 0.00712293 0.006122088 0.0033348864
-0.0011172337 -0.007896476 0.008330353 0.0002288202 -0.0009951871 0.0076010358 -0.0049654846 0.005059469
0.00801378 0.0024053045 -0.005780784 0.001759368 0.0073628877 -0.0081031695 -0.008302558 -0.007420381
0.0010326509 -0.0017104154 -0.00064668927 -0.0034420271 -0.0041734674 0.005088467 0.0021187775 -0.0048146513
-0.0081073465 -0.004317959 0.0026748097 -0.002853434 -0.0035625058 -0.007834983 0.0019084031 -0.0068794447
-0.004006925 0.006630674 0.0018709311 -0.00075861195 -0.004542569 -0.0047451993 0.0061192997 0.0045031877
0.0068844277 -0.0053660288 0.0013719074 0.0028844438 0.0037375807 0.007307591 0.0014557587 -0.004030325
0.004959793 0.0017340668 -0.0040996904 0.0062959385 0.0051963334 -0.00335307 -0.002492148 -0.001680867
00000000: 54a2 91b8 b68e 3abc 8b71 d9bc 0814 99bb
00000010: 43ae 583c 2737 65bb f4a2 893c e8b2 8d3b
00000020: 520d 2fbc 04cc 45bb d388 a63b b261 28bc
00000030: 0039 803b e687 68bb 073b dcbc a220 a03b
00000040: d131 c3bb 7afe 72bc 5fba 083b 6844 a73c
00000050: e7e3 febb ade5 413c a216 d2bb fe03 e4bb
00000060: c89c dcba 7c52 35bb 48cb 8cbc 748c f33b
00000070: 26a8 683b 828a babc 0777 4bbc 22cf 98bb
00000080: ee10 e1bc 3ccc e53b f90f 293d a25f 87bb
00000090: d6ea 423b c0af 183c 0c3b 3ebc 860a 183c
000000a0: 8c40 163b 67b2 d1bc 6411 983c 1afc f2bb
000000b0: 1759 b5bc c6ec adbc e31e 19bc 9213 febc
000000c0: 5a6c 8eba 86bc 64bc ade5 d5bb 0df6 243b
000000d0: 773f 66bb 4893 4abc 23b6 263b 0491 e83b
000000e0: 98f3 aabc 5a90 483c 1efe 07ba 22eb 05bd
000000f0: 7274 abbc 9371 a43a 642f c8bc f2d7 31bb
00000100: 4626 f0bc 8a22 46bc f25f 36bc 29bd 1f3d
00000110: 5899 79bc d0b3 fc3b 6133 c9ba e029 c5bc
00000120: fc18 98bb 1da8 a23b 640a babc 466e afbb
00000130: ba68 13bc f129 cabc 5a77 2abb 624b 253c
00000140: cbe9 31bc d849 e33c 17b3 373d 8c1e b6ba
00000150: 76da cc3b 0918 173c 28c0 aabc d04c ed3c
00000160: c4b3 e43b c53b b1bc 7d5e 0b3b 3958 a0bb
00000170: 3e97 d7bb f438 b6bb 6c2f 9bba 06ca efba
00000180: efc5 b0bb 80e6 e2b9 ccd6 323b 195a c53b
00000190: 15bc 383b 25ad 013c eeef 9dbb 755a 153c
000001a0: 8034 223b cfcc 6cbb e0a7 053b 5619 40bb
000001b0: ec21 723b 7dab 093b d858 8aba 8363 ec3a
000001c0: 70e2 e9bb 698a 0e3c 761b 953b b7c7 c33b
000001d0: 8850 e53b 9261 dd3b e6fe 8d3b 4b36 ac3a
000001e0: c6a8 60bd 1c3b 0cb9 f9a6 4bbd 78eb ebbb
000001f0: fffc 3fbd d0c8 d2bc 7e23 943b e009 4abb
00000200: 91de 89bc fbe9 afbb 0924 87bc 1ae2 54bd
00000210: 42fc c23b 3a5d f9bb 1bce aabc 249b 4bbd
00000220: ec06 43bc 3959 21bd c6df 88bb b76d c4bc
00000230: 9d9a b2bc dd01 8dbb 7f1b 14bc ac2a 18bc
00000240: 46f9 57bb 7d39 51bc 3324 30bd c5de abba
00000250: 0b28 513a e411 94bc 5ff2 03bd 60e9 e5bb
00000260: 6fb1 16bd 6bb8 00bb 531d 41bb dc2b 05bd
00000270: 97ce 8eba 557a 173d 5d5f cabc 8c05 923b
00000280: 8f97 ddbb 44fc 36bd 25a5 1f3c c87e 543b
00000290: 948c 8fbc 6f9a 15bd b72d 13bc fd2c 3cbd
000002a0: bdd0 20bc cea0 043c 1003 98bc f062 6c3c
000002b0: e0af 07bd f052 bfbc 44b9 14bb 70f1 2e3a
000002c0: a446 5abd c9a2 923a 57b2 a8bb 0c9f ecbc
000002d0: d42a 533b 170b 613b aa07 b43b 12d7 ff3b
000002e0: 68fc 3cba 8041 6c3b 9811 f83b 644e 45bb
000002f0: 054b bf3b dbb5 903b 96c2 d6bb f51a 95bb
00000300: 39a6 f6ba 680e a93a 8a4d cfbb d586 fa39
00000310: d4bf acbb 7867 e93b cc9b c83b 1c8e 5a3b
00000320: 2470 92ba 3960 01bc 087c 083c 74ef 6f39
00000330: f070 82ba 1c12 f93b 81b5 a2bb e7c9 a53b
00000340: 3b4c 033c 50a2 1d3b bb6c bdbb 989a e63a
00000350: 6144 f13b 28c3 04bc 7407 08bc ab26 f3bb
00000360: 045a 873a 0430 e0ba 9586 29ba a293 61bb
00000370: 95c1 88bb 28bd a63b 30db 0a3b 39c4 9dbb
00000380: add4 04bc aa7d 8dbb dc4b 2f3b ae00 3bbb
00000390: ee78 69bb 4d5e 00bc 6223 fa3a f76c e1bb
000003a0: 864c 83bb 2046 d93b 083a f53a 96dd 46ba
000003b0: d5d9 94bb 9e7d 9bbb 6884 c83b 7a8f 933b
000003c0: c496 e13b 83d5 afbb 93d1 b33a f008 3d3b
000003d0: 33f2 743b 8474 ef3b 28cf be3a d110 84bb
000003e0: c285 a23b a049 e33a b256 86bb 294e ce3b
000003f0: 0146 aa3b 2ebf 5bbb 4e53 23bb 8a50 dcba

fc1.bias f4 [10]
-0.004720173 0.033823915 0.00975693 -0.002696452 0.009623825 0.026838796 -0.006215665 0.02773985
-0.048367564 -0.016308408
00000000: aeab 9abb f28a 0a3d 88db 1f3c f5b6 30bb
00000010: 3fad 1d3c 09dd db3c c7ac cbbb af3e e33c
00000020: 111d 46bd 3699 85bc
